best_model.pth (torch, 43878 bytes, 6 tensors)

fc1.weight f4 [128, 14]
0.090521835 -0.21247889 0.16080873 -0.18011104 -0.050982248 0.08121406 -0.12110974 -0.15041679
0.032447927 0.06136905 -0.18750112 -0.1729688 0.15086456 -0.13569003 0.015368703 -0.11152254
0.22146107 0.13530183 -0.031328503 -0.3957685 -0.1364449 -0.10655373 0.15450388 0.21475005
0.09873276 -0.1613556 -0.18074451 -0.09970908 0.15099092 -0.18030922 -0.09073415 -0.019691475
-0.28260458 0.22414237 -0.07473954 0.116767235 -0.04913476 -0.08917095 0.23918942 0.21087155
-0.13212268 0.05366161 0.1505015 0.16784747 -0.17934725 -0.20225498 0.26907328 -0.049870525
0.23827462 0.17237616 -0.11057074 -0.20233613 -0.09949261 -0.25961846 -0.22592296 0.1917126
0.2044568 0.054803055 0.12697169 -0.17637068 0.120397955 0.026467424 -0.05031963 -0.021464646
0.037396736 -0.21404806 -0.15616208 -0.15969114 -0.0394243 0.07815412 0.062034298 0.03297325
-0.033912357 0.21418123 0.0813855 -0.009067833 0.3209047 -0.16165395 0.10309859 -0.11250356
-0.14297284 0.23597467 -0.028274745 -0.24693249 -0.0583615 0.3093552 0.16089608 -0.22593538
-0.13423622 0.25652444 -0.09900931 0.2244707 0.22247893 0.006365768 -0.10966604 0.004504259
-0.15831827 0.20880347 -0.16054323 0.25500706 0.092077516 0.013381736 0.012296023 0.074156925
0.23538496 -0.2680027 -0.22210291 -0.15772885 -0.10051936 -0.05918789 -0.14329857 0.044193115
-0.036116872 -0.25935853 0.19661327 -0.068034664 0.26807517 0.021927107 0.13474442 0.2163624
0.033705555 0.046776034 -0.22316514 0.1144202 0.034203842 0.029881964 0.022379091 0.0849366
-0.16058421 -0.092129 -0.06432495 -0.38539115 -0.11077775 0.013285115 0.20177077 0.10545278
0.037250392 -0.059476867 0.0058693015 0.10668504 -0.19562095 0.119363844 0.26023823 -0.07199724
0.15236142 -0.30331498 -0.22848609 0.10171798 -0.20030889 0.057943933 -0.047371466 0.10582043
0.11636175 0.22553818 -0.11517698 0.09006055 0.012144078 -0.19409545 -0.23258628 -0.032820202
-0.1864586 -0.057149805 -0.14730428 -0.05862637 -0.038146414 0.22793056 -0.19357255 0.23342021
-0.19838895 0.116471805 0.05846888 0.027660118 -0.14055093 -0.33043092 -0.0036363003 -0.1211612
-0.010258986 -0.10970115 -0.013926982 0.08724588 -0.1865631 0.19934554 0.035502106 -0.09600648
0.15390688 0.021911703 0.03312994 -0.11490282 -0.14630884 0.07860274 0.2750735 0.14218487
0.065519914 -0.118310034 0.18251434 -0.15436178 0.07145016 0.00909711 -0.16067441 -0.07441252
-0.18770956 -0.33354628 -0.11197591 -0.0059611215 0.022928186 0.016931359 0.0003270426 0.023850014
0.00862799 0.040881667 -0.083992675 0.025658315 -0.14742465 -0.14449213 0.18152738 -0.015052626
-0.13916834 -0.21575648 0.24987449 -0.27310306 0.08168047 0.0028083676 -0.3346469 -0.33535445
-0.15943608 -0.254376 -0.11653599 0.12458371 -0.21887174 0.0052343076 -0.1360215 -0.20627742
0.22852883 0.0657446 0.18569073 -0.12500688 0.13625917 0.0017025548 -0.0021028775 0.10610097
-0.20565125 -0.25041792 0.15199515 -0.08725423 0.28373626 0.012320002 -0.20857659 -0.20609011
0.0427223 0.070039235 -0.2979034 -0.042024344 0.17961559 -0.19133215 -0.084483765 -0.10462927
00000000: 8363 b93d 1194 59be 0bab 243e 076f 38be
00000010: c3d2 50bd 8f53 a63d 6208 f8bd dc06 1abe
00000020: 1ee8 043d 1d5e 7b3d 4b00 40be bc1e 31be
00000030: 3d7c 1a3e 54f2 0abe 03cd 7b3c ee65 e4bd
00000040: b1c6 623e 908c 0a3e 5152 00bd 2ba2 cabe
00000050: 36b8 0bbe d838 dabd 4436 1e3e 70e7 5b3e
00000060: 6734 ca3d 673a 25be 1715 39be 4634 ccbd
00000070: 5d9d 1a3e fba2 38be d3d2 b9bd 0450 a1bc
00000080: 8cb1 90be 9485 653e 0b11 99bd a923 ef3d
00000090: 8841 49bd 429f b6bd 12ee 743e b6ee 573e
000000a0: 2b4b 07be 47cc 5b3d 111d 1a3e 35e0 2b3e
000000b0: cea6 37be ee1b 4fbe f9c3 893e 0945 4cbd
000000c0: 43fe 733e 6083 303e ea72 e2bd 3431 4fbe
000000d0: c8c2 cbbd b6ec 84be 5958 67be 4f50 443e
000000e0: 205d 513e 2b79 603d de04 023e 849a 34be
000000f0: 3493 f63d 36d2 d83c f51b 4ebd a0d6 afbc
00000100: 522d 193d 6a2f 5bbe f4e8 1fbe 1386 23be
00000110: 607b 21bd 440f a03d ad17 7e3d f50e 073d
00000120: afe7 0abd 5352 5b3e 71ad a63d 4091 14bc
00000130: 9f4d a43e 9d88 25be 5b25 d33d 4468 e6bd
00000140: 7967 12be 58a3 713e 70a0 e7bc dfdb 7cbe
00000150: 780c 6fbd ce63 9e3e f1c1 243e 9b5b 67be
00000160: 3875 09be 2c57 833e 65c5 cabd a6db 653e
00000170: 84d1 633e ef97 d03b 9798 e0bd 7798 933b
00000180: 2f1e 22be 94d0 553e 7265 24be 4990 823e
00000190: 2393 bc3d 123f 5b3c 4275 493c 96df 973d
000001a0: c108 713e a637 89be f26e 63be ac83 21be
000001b0: 18dd cdbd 006f 72bd dcbc 12be d703 353d
000001c0: 49ef 13bd a4ca 84be fd54 493e c255 8bbd
000001d0: 2641 893e 7aa0 b33c 71fa 093e 1b8e 5d3e
000001e0: d60e 0a3d 3a98 3f3d 6785 64be 2355 ea3d
000001f0: 5419 0c3d 05cb f43c 5b54 b73c 3df3 ad3d
00000200: 3070 24be 21ae bcbd cdbc 83bd fd51 c5be
00000210: 72df e2bd d0a9 593c ff9c 4e3e a1f7 d73d
00000220: de93 183d 049e 73bd 4553 c03b b07d da3d
00000230: dc50 48be 0875 f43d f23d 853e 4a73 93bd
00000240: a204 1c3e 1a4c 9bbe 42f8 69be 8451 d03d
00000250: c61d 4dbe 9e56 6d3d 9508 42bd 62b8 d83d
00000260: 124f ee3d 7bf3 663e e9e1 ebbd aa71 b83d
00000270: f4f7 463c f5c0 46be 192b 6ebe 7a6e 06bd
00000280: 01ef 3ebe ea15 6abd efd6 16be 3422 70bd
00000290: 6a3f 1cbd a166 693e e237 46be b505 6f3e
000002a0: 7926 4bbe c588 ee3d 107d 6f3d 7997 e23c
000002b0: 95ec 0fbe 3e2e a9be ff4e 6ebb 5d23 f8bd
000002c0: 4e15 28bc ffaa e0bd ff2d 64bc f8ad b23d
000002d0: 660a 3fbe 3d21 4c3e a86a 113d 0c9f c4bd
000002e0: c499 1d3e 2c80 b33c 43b3 073d 2b52 ebbd
000002f0: fcd1 15be 79fa a03d 6fd6 8c3e e998 113e
00000300: 4e2f 863d 884c f2bd 0ae5 3a3e 0411 1ebe
00000310: 7654 923d 0b0c 153c d587 24be 9765 98bd
00000320: ef36 40be 94c6 aabe a053 e5bd 8355 c3bb
00000330: e4d3 bb3c a2b3 8a3c ea76 ab39 1b61 c33c
00000340: 6a5c 0d3c 8973 273d 5a04 acbd 6331 d23c
00000350: 7df6 16be bff5 13be 50e2 393e 4a9f 76bc
00000360: 2582 0ebe 44ef 5cbe 19df 7f3e 2ad4 8bbe
00000370: 1748 a73d 970c 383b d756 abbe 94b3 abbe
00000380: 3643 23be 923d 82be 6caa eebd bf25 ff3d
00000390: ea1f 60be 8e84 ab3b 3849 0bbe 633a 53be
000003a0: 7603 6a3e 1ba5 863d b625 3e3e ce01 00be
000003b0: 8687 0b3e 4228 df3a 6ed0 09bb 774b d93d
000003c0: 3e96 52be c736 80be 9ea4 1b3e 59b2 b2bd
000003d0: e145 913e d5d9 493c 1a95 55be 4909 53be
000003e0: 94fd 2e3d bb70 8f3d cb86 98be b821 2cbd
000003f0: 26ed 373e 93ec 43be d305 adbd df47 d6bd

fc1.bias f4 [128]
0.21199547 0.3259009 -0.24573493 0.2414331 -0.23131895 0.13008966 0.039819375 0.033802833
0.2532319 0.2576055 0.17074634 0.15623377 -0.11929724 0.24338135 0.21217188 -0.0595312
0.28964788 0.12627418 0.19625099 0.22472179 0.008612141 -0.01650944 -0.026251296 -0.03951893
0.25814325 -0.05012067 0.26162815 0.104837395 0.20209229 -0.04302036 0.03522166 -0.26420197
-0.26879752 -0.16250506 0.15853421 0.24195358 0.18254098 -0.17071623 0.027635684 0.11112497
0.23558755 -0.19695607 0.21245329 -0.08364272 0.09408084 0.210713 0.1873336 0.039970655
0.16710608 0.17281389 -0.16092545 0.031655844 -0.15580896 0.2557889 -0.31126675 0.25263405
0.22261858 0.011019955 0.05456787 0.25352702 0.020614065 -0.11300501 -0.042667426 -0.2096369
-0.1524801 0.17930461 -0.018422456 0.27044138 0.32003295 0.073626965 -0.113556065 -0.2747424
-0.15913816 0.05804372 0.2855362 -0.08316176 0.2468462 -0.2677119 0.12255176 0.05033101
0.050686 -0.02629733 0.09572666 0.23140782 -0.33288044 0.008494498 0.05938339 -0.012347936
-0.17315052 0.24511915 -0.2416577 0.14897966 0.26842618 0.27116415 -0.041546654 0.048745032
0.19195744 -0.2610774 -0.15223227 0.12895782 -0.053537436 0.13993391 -0.15225783 0.2848073
-0.09203074 -0.040890932 0.07414331 0.17455503 -0.22523135 -0.08888428 0.09633021 -0.09235714
-0.15406908 0.16227548 -0.0111109475 0.14233552 0.0012599106 -0.23005426 0.0924462 -0.06556144
0.09225023 -0.09956029 -0.14284746 -0.18423432 -0.16852424 0.03740717 -0.20823619 0.052683637
00000000: 5715 593e 7cdc a63e f0a1 7bbe 3d3a 773e
00000010: e0de 6cbe 3936 053e a419 233d d774 0a3d
00000020: 9da7 813e dee4 833e 21d8 2e3e bffb 1f3e
00000030: 1d52 f4bd f638 793e 9643 593e fdd6 73bd
00000040: ba4c 943e 054e 013e 05f6 483e 781d 663e
00000050: f019 0d3c ce3e 87bc f50c d7bc 9ade 21bd
00000060: 5a2b 843e 554b 4dbd 20f4 853e fdb4 d63d
00000070: 48f1 4e3e 1e36 30bd 9644 103d 7b45 87be
00000080: d49f 89be ba67 26be cb56 223e aec2 773e
00000090: 06ec 3a3e 3cd0 2ebe 3b64 e23c 7d95 e33d
000000a0: dd3d 713e daae 49be 5b8d 593e e04c abbd
000000b0: 75ad c03d 26c5 573e 61d4 3f3e 45b8 233d
000000c0: db1d 2b3e 20f6 303e a4c9 24be 8fa9 013d
000000d0: 628c 1fbe c3f6 823e 5b5e 9fbe 4059 813e
000000e0: 20f6 633e 0b8d 343c 8f82 5f3d 4bce 813e
000000f0: d4de a83c 2c6f e7bd 0ac4 2ebd 0eab 56be
00000100: be23 1cbe a19b 373e b1ea 96bc 4b77 8a3e
00000110: 5cdb a33e bcc9 963d 1590 e8bd 09ab 8cbe
00000120: 1df5 22be 40bf 6d3d cd31 923e b650 aabd
00000130: 40c5 7c3e 8911 89be 6bfc fa3d e427 4e3d
00000140: 209c 4f3d 806d d7bc 570c c43d 2cf6 6c3e
00000150: 4e6f aabe 822c 0b3c ff3b 733d ff4e 4abc
00000160: 5f4e 31be 8400 7b3e 1e75 77be 208e 183e
00000170: 286f 893e 07d6 8a3e d32c 2abd dfa8 473d
00000180: 7e90 443e f0ab 85be c7e2 1bbe 850d 043e
00000190: 124a 5bbd d64a 0f3e 7ae9 1bbe 43d2 913e
000001a0: 9d7a bcbd 407d 27bd 73d8 973d 8ebe 323e
000001b0: 0ca3 66be f608 b6bd c648 c53d bd25 bdbd
000001c0: 49c4 1dbe 8b2b 263e b10a 36bc 67c0 113e
000001d0: 9623 a53a 5893 6bbe 6f54 bd3d 1445 86bd
000001e0: b0ed bc3d 44e6 cbbd 9b46 12be eca7 3cbe
000001f0: 9e91 2cbe 4338 193d de3b 55be ccca 573d

fc2.weight f4 [64, 128]
-0.01915427 0.022322314 0.07300696 -0.063955925 -0.031907164 -0.0144731505 0.0016752386 -0.01921117
0.007938454 -0.08534427 -0.036619518 -0.09119972 0.023191726 0.032349627 -0.027699908 -0.04529837
-0.091990255 -0.11975325 0.03427438 -0.053200047 0.052519158 -0.035501897 -0.057866115 -0.034867346
0.027906926 -0.051063184 0.08036342 0.05308472 -0.05627342 -0.09146924 0.025711887 0.14772162
0.02431188 -0.08455512 -0.0024996698 0.05562078 -0.039502885 0.03824922 0.065757506 -0.02617151
0.043923084 -0.027895859 0.033268146 0.08086205 -0.005183694 -0.018467177 0.06035886 -0.072274335
0.038781878 -0.104908496 0.06279589 -0.020865958 0.078460276 -0.09141671 -0.069423586 0.00064076035
0.07366713 0.07279392 -0.07090789 -0.045862712 0.036574125 0.02023316 -0.12783681 -0.0025069318
0.058043767 -0.0958894 -0.019640902 0.034867525 0.013005294 0.011510596 0.029215388 -0.011893606
-0.0044793547 0.024677388 -0.047561284 -0.07878082 0.01151074 0.047885593 0.03868172 -0.08887701
-0.0831403 -0.055144377 -0.006564425 -0.09758722 0.0097149545 -0.028330458 0.020982007 0.055769745
-0.08931201 -0.033284392 -0.047029138 0.02423614 0.010770247 -0.0864941 0.019549364 0.06361628
0.09863616 -0.028957322 -0.06968478 -0.043546252 -0.01326649 -0.06510153 -0.0036113919 0.04320845
-0.041606713 -0.09369739 -0.083439566 0.027770568 0.038307805 -0.09018046 0.059099283 -0.08630036
0.06618152 -0.08167957 0.028101064 0.06279123 -0.060960993 0.009597642 -0.04511601 -0.09176873
0.0027156242 0.06760771 -0.028733678 0.03239874 0.035723068 -0.044498872 0.0076676365 0.016497986
8.374816e-06 -0.08365908 0.041120205 0.04655881 0.029112969 -0.029713422 -0.042537995 0.103483714
0.033918757 -0.034846816 -0.07463846 0.075324714 -0.0653195 0.052027993 -0.007696776 -0.07551369
-0.07437998 0.07918476 -0.0070898407 -0.0070118466 0.03713061 0.0033878232 -0.0067496076 0.010809816
-0.020079091 0.023454301 0.08386175 -0.08428069 -0.02553367 0.09273675 0.05882576 -0.0062510385
0.002847174 0.051869888 0.07411876 -0.018252673 -0.09155005 0.03437065 -0.04675256 -0.017102398
0.07900598 0.063205004 0.015140159 -0.052416515 -0.018328892 0.00639262 -0.064770505 0.04696988
0.04321309 -0.044898253 0.01884612 0.06268769 0.043346293 0.045723837 -0.00351038 0.021875946
-0.016235348 -0.032021433 -0.09955518 -0.04293187 -0.082952954 0.023354946 0.09019443 0.07247297
-0.068817765 -0.044583425 0.101054914 0.05216879 0.044477485 -0.062455487 0.0025503105 -0.05631293
0.08462198 0.05104903 -0.03355967 0.04384058 -0.04560091 -0.1385881 0.056799397 -0.05390088
-0.06362935 0.006356641 -0.07330572 0.027607057 -0.007856738 0.01641179 0.016654091 0.071353346
0.041616622 -0.013173658 -0.11279581 0.08001449 -0.11382245 -0.07462813 0.037389383 0.077726126
0.07319006 0.0221595 -0.075067356 0.05937059 -0.00094871223 0.104505025 -0.08026059 0.03620564
0.025866533 0.07354381 -0.0043376703 -0.040805098 -0.06291094 -0.107610516 -0.09670059 -0.04805
0.12305907 0.05161784 0.05552157 -0.07250119 0.020225959 -0.03627889 -0.15304703 0.070155345
0.079535805 0.05564942 0.0394652 0.06515618 0.0048868204 -0.015846074 0.07001631 -0.03675124
00000000: 6ae9 9cbc 49dd b63c ac84 953d 53fb 82bd
00000010: 16b1 02bd cb20 6dbc ae93 db3a be60 9dbc
00000020: 4a10 023c fac8 aebd 59fe 15bd ebc6 babd
00000030: 93fc bd3c 0b81 043d ebea e2bc c98a 39bd
00000040: 6365 bcbd 3141 f5bd 4b63 0c3d 4be8 59bd
00000050: 541e 573d 706a 11bd 0505 6dbd 10d1 0ebd
00000060: 119d e43c a127 51bd 9495 a43d 5d6f 593d
00000070: f57e 66bd 3a54 bbbd bca1 d23c 5644 173e
00000080: b529 c73c 3c2b adbd 80d1 23bb 9dd2 633d
00000090: c7cd 21bd 37ab 1c3d dfab 863d a265 d6bc
000000a0: b1e8 333d db85 e4bc 2e44 083d 019b a53d
000000b0: fadb a9bb 7a48 97bc da3a 773d 9104 94bd
000000c0: bfd9 1e3d 44da d6bd 229b 803d 16ef aabc
000000d0: c8af a03d af38 bbbd f42d 8ebd b3f8 273a
000000e0: cbde 963d fb14 953d 2838 91bd 8ada 3bbd
000000f0: c0ce 153d 03c0 a53c a7e7 02be 564b 24bb
00000100: 4dbf 6d3d a961 c4bd f5e5 a0bc 40d1 0e3d
00000110: 2814 553c f096 3c3c 1c55 ef3c 66dd 42bc
00000120: 8dc7 92bb 3c28 ca3c 9fcf 42bd d757 a1bd
00000130: 8b97 3c3c af23 443d b970 1e3d 2605 b6bd
00000140: 7645 aabd 12df 61bd 631a d7bb cfdb c7bd
00000150: 792b 1f3c 4715 e8bc 75e2 ab3c d16e 643d
00000160: 37e9 b6bd 3755 08bd a0a1 40bd df8a c63c
00000170: b175 303c d223 b1bd fd25 a03c 4149 823d
00000180: c101 ca3d e837 edbc e5b6 8ebd 8e5d 32bd
00000190: b15b 59bc f353 85bd 1aad 6cbb 58fb 303d
000001a0: cd6b 2abd 6be4 bfbd 5de2 aabd 1a7f e33c
000001b0: a5e8 1c3d 88b0 b8bd 1712 723d 3ebe b0bd
000001c0: 2d8a 873d 9e47 a7bd 3434 e63c b098 803d
000001d0: 3cb2 79bd 6e3f 1d3c 91cb 38bd 3ef1 bbbd
000001e0: 9df8 313b e975 8a3d e462 ebbc 8bb4 043d
000001f0: 5a52 123d 7344 36bd cc40 fb3b c926 873c
00000200: 9081 0c37 7455 abbd a96d 283d 73b4 3e3d
00000210: 527e ee3c 9069 f3bc 523c 2ebd 45ef d33d
00000220: 65ee 0a3d 89bb 0ebd 0ddc 98bd d843 9a3d
00000230: 3bc6 85bd 4e1b 553d 3d35 fcbb eca6 9abd
00000240: 8854 98bd 9f2b a23d e551 e8bb a2c3 e5bb
00000250: 4416 183d 3e06 5e3b d02b ddbb a81b 313c
00000260: e87c a4bc 3c23 c03c b6bf ab3d 5b9b acbd
00000270: fd2b d1bc c4ec bd3d 48f3 703d 83d5 ccbb
00000280: a797 3a3b 8575 543d 94cb 973d a186 95bc
00000290: 987e bbbd 3dc8 0c3d 9d7f 3fbd 541a 8cbc
000002a0: e3cd a13d a071 813d 6e0e 783c b3b2 56bd
000002b0: 7926 96bc 2f79 d13b 66a6 84bd 7d63 403d
000002c0: 3600 313d 3be7 37bd 2e63 9a3c 6762 803d
000002d0: e28b 313d eb48 3b3d 670e 66bb 2f35 b33c
000002e0: feff 84bc e828 03bd 96e3 cbbd 54d9 2fbd
000002f0: 3de3 a9bd df52 bf3c dbb7 b83d b56c 943d
00000300: 54f0 8cbd 1c9d 36bd e1f5 ce3d f1ae 553d
00000310: 062e 363d 53d1 7fbd 1c23 273b 63a8 66bd
00000320: 4a4e ad3d ca18 513d dd75 09bd 2e92 333d
00000330: 05c8 3abd 0aea 0dbe 7ca6 683d 2bc7 5cbd
00000340: 1b50 82bd 5f4b d03b 4f21 96bd 3228 e23c
00000350: 8cb9 00bc 0572 863c 296e 883c b421 923d
00000360: 3176 2a3d 54d6 57bc 7d01 e7bd a3de a33d
00000370: bf1b e9bd a2d6 98bd 9c25 193d e02e 9f3d
00000380: ace4 953d d787 b53c eabc 99bd 932e 733d
00000390: 00b3 78ba bb06 d63d aa5f a4bd 5d4c 143d
000003a0: 0de6 d33c 239e 963d 0423 8ebb 3f23 27bd
000003b0: 73d7 80bd e762 dcbd f50a c6bd 14d0 44bd
000003c0: 6506 fc3d 3a6d 533d 966a 633d 817b 94bd
000003d0: e9b0 a53c 2c99 14bd 5cb8 1cbe 9bad 8f3d
000003e0: abe3 a23d a5f0 633d 43a6 213d 9a70 853d
000003f0: 9f21 a03b a0cf 81bc b664 8f3d 7888 16bd

fc2.bias f4 [64]
0.0032073567 0.084157415 0.08476613 -0.034258056 0.067583784 -0.041589156 0.04182099 0.054076653
0.088174395 0.005101349 0.17166744 0.0507055 0.09273807 -0.0053981375 -0.0034179105 -0.02581995
-0.02803418 0.032987256 0.026949711 0.09915029 -0.002774452 0.11417553 -0.019835548 -0.05989018
0.04316109 0.049363486 0.11685715 0.081449635 -0.052149665 -0.05937639 0.08640639 0.03916375
0.101692334 -0.030271355 -0.042846348 0.09547735 0.11525141 -0.01596476 -0.01834861 0.08054067
-0.035778802 0.12040161 0.033165295 0.017859705 -0.030192908 0.0650369 -0.05682019 -0.007695179
-0.014754793 0.02741942 -0.05473759 -0.032487076 -0.08000264 0.019008232 -0.012935468 -0.027106626
0.012608144 -0.106599875 0.002661978 -0.062454697 0.057768807 -0.0021281035 0.02828624 0.009351439
00000000: 8432 523b b95a ac3d dd99 ad3d 2d52 0cbd
00000010: 5e69 8a3d 6459 2abd 7d4c 2b3d 7b7f 5d3d
00000020: c794 b43d 3829 a73b 97c9 2f3e 92b0 4f3d
00000030: 75ed bd3d dce2 b0bb 06ff 5fbb 5c84 d3bc
00000040: f0a7 e5bc a51d 073d a4c5 dc3c 4f0f cb3d
00000050: 95d3 35bb dcd4 e93d 297e a2bc 684f 75bd
00000060: afc9 303d 5e31 4a3d cd52 ef3d 11cf a63d
00000070: e39a 55bd a834 73bd d5f5 b03d 2b6a 203d
00000080: 1244 d03d a2fb f7bc a77f 2fbd a189 c33d
00000090: ee08 ec3d 87c8 82bc d34f 96bc 82f2 a43d
000000a0: cb8c 12bd 1f95 f63d 55d8 073d 844e 923c
000000b0: 1e57 f7bc 1132 853d 4abc 68bd d727 fcbb
000000c0: 16be 71bc b19e e03c 8634 60bd 2b11 05bd
000000d0: 6dd8 a3bd 27b7 9b3c 49ef 53bc b70e debc
000000e0: 6492 4e3c 0951 dabd 9474 2e3b 7fd0 7fbd
000000f0: fc9e 6c3d a777 0bbb 8bb8 e73c c736 193c

fc3.weight f4 [2, 64]
0.08948172 -0.095559634 -0.02478905 0.09321034 -0.08577544 -0.091696076 0.08421635 0.05539724
0.107387856 -0.119759016 0.15850501 -0.027600044 0.13171554 -0.093099 -0.05354975 0.11768553
0.065944836 0.020823875 -0.14442533 -0.06279586 -0.04802053 0.010060967 -0.15482642 -0.14075354
-0.11027818 -0.019892672 0.04945981 0.04352616 8.583041e-05 0.05213472 0.08846361 0.09399715
-0.0434596 -0.063094854 -0.08815654 -0.041445255 -0.034265425 0.12695546 0.10832443 -0.038838867
-0.11002921 0.029888665 -0.099648915 -0.14733689 -0.024449699 0.1647831 0.010877579 -0.028099256
0.08936988 -0.1359097 -0.09079932 0.060794994 0.086219616 -0.10073031 -0.06663387 -0.11039846
0.034083966 0.063184984 0.025361054 0.118850745 -0.04953587 -0.0016694558 -0.046127778 -0.009408033
-0.03550183 0.045097183 0.16010109 -0.059860528 0.08261872 0.12899494 -0.10900604 -0.022231845
-0.08443876 0.1609762 0.045561474 0.13524 0.06824952 0.13061652 0.12618086 -0.14083463
-0.07697243 -0.028689472 -0.063716345 -0.085906126 0.012523693 -0.06812789 0.026796838 -0.07140545
-0.03328441 0.113705136 -0.06558049 -0.038397387 0.0070306235 0.09804008 -0.0717481 -0.029848024
-0.07544982 0.108579986 -0.012561231 0.17568676 0.13321811 0.07151258 -0.04101185 0.051363673
-0.09488567 -0.0728678 0.07933845 0.11113566 -0.019237788 0.06709446 -0.122556865 0.050789222
0.02728833 0.118472025 -0.03692135 0.016889205 0.09947462 0.04431656 0.06918762 0.052179057
-0.0988885 -0.068750106 -0.08096467 0.11967036 0.15109268 0.06637275 -0.054422233 0.06813948
00000000: 3142 b73d c5b4 c3bd 6812 cbbc 10e5 be3d
00000010: 09ab afbd 27cb bbbd 9f79 ac3d 37e8 623d
00000020: 2aee db3d 3744 f5bd 234f 223e 7d19 e2bc
00000030: 70e0 063e b0aa bebd fc56 5bbd 1c05 f13d
00000040: 160e 873d d596 aa3c 3ce4 13be 1e9b 80bd
00000050: 2db1 44bd c1d6 243c d18a 1ebe b221 10be
00000060: 87d9 e1bd f5f5 a2bc 5f96 4a3d 7d48 323d
00000070: daff b338 378b 553d 692c b53d 9481 c03d
00000080: b202 32bd e037 81bd 6b8b b4bd 80c2 29bd
00000090: e759 0cbd 9d00 023e 33d9 dd3d 8115 1fbd
000000a0: ff56 e1bd 13d9 f43c bb14 ccbd 7bdf 16be
000000b0: bc4a c8bc e7bc 283e e037 323c 6930 e6bc
000000c0: 8e07 b73d ea2b 0bbe fef4 b9bd 2c04 793d
000000d0: e993 b03d b14b cebd 5777 88bd 9618 e2bd
000000e0: a19b 0b3d 2167 813d fcc1 cf3c 0568 f33d
000000f0: 20e6 4abd a4d1 daba 7bf0 3cbd 2724 1abc
00000100: 5e6a 11bd d3b7 383d 8af1 233e 5030 75bd
00000110: 0134 a93d 4017 043e 8f3e dfbd 8f1f b6bc
00000120: 3bee acbd f2d6 243e ab9e 3a3d 5b7c 0a3e
00000130: 68c6 8b3d 56c0 053e 8e35 013e f436 10be
00000140: b9a3 9dbd 2f06 ebbc b77d 82bd 8def afbd
00000150: 2d30 4d3c a386 8bbd 0b85 db3c 053d 92bd
00000160: 3c55 08bd 3dde e83d 104f 86bd 9446 1dbd
00000170: 2561 e63b 3dc9 c83d abf0 92bd d883 f4bc
00000180: 6f85 9abd 2f5f de3d 9fcd 4dbc 3be7 333e
00000190: 546a 083e 3075 923d 0bfc 27bd b762 523d
000001a0: 6b53 c2bd b73b 95bd 337c a23d 189b e33d
000001b0: 9198 9dbc d268 893d 18ff fabd 5c08 503d
000001c0: c78b df3c 76a1 f23d d73a 17bd 3b5b 8a3c
000001d0: 59b9 cb3d 4885 353d 3db2 8d3d b5b9 553d
000001e0: 0e86 cabd dbcc 8cbd ced0 a5bd bc15 f53d
000001f0: 0ab8 1a3e 70ee 873d d9e9 5ebd b68c 8b3d

fc3.bias f4 [2]
0.05146406 -0.08363683
00000000: facb 523d c949 abbd
